notebooks/models/model_regression_priors_X_test_draftable.npy (npy, 677576 bytes, 1 tensors)

array (column-major) f8 [873, 97]
0	0x404e903d3d595857	61.12686888563683
1	0xc0101ccb30dda313	-4.028118861701631
2	0x3fe4f2f32b91ea20	0.6546569682098529
3	0x4024bf009eacdeba	10.373051603891657
4	0x402814dca4553702	12.040745864298064
5	0x404a55ee5881e7b5	52.67133623450301
6	0xc010873cecb0c654	-4.132068346299622
7	0xc0104ab0bfeb82b8	-4.07293987154906
8	0xc003b80f7bb67796	-2.464873281961398
9	0x40362326bef69db7	22.13730996628666
10	0xc00be80542726430	-3.48829128181071
11	0xc0057ceedcedf5ce	-2.6860024700278933
12	0xc0113b1ffbfb5b4a	-4.307739197937574
13	0xc00d5a8c12373273	-3.6692124770254906
14	0xc00a75bfa4066dda	-3.3074944319211967
15	0xc004d1e828f2dbdc	-2.6024935912241585
16	0x403412f0c534b507	20.073986363761858
17	0xc002da5d47da1712	-2.3566232312613318
18	0x40385e89b233823b	24.36928857572114
19	0x404be033f5c71703	55.75158569546877
20	0x4054b6e532028c56	82.85773897408339
21	0x40322c5a5fabd3bb	18.173253993463486
22	0xc00ad6a5a3f91c06	-3.354808121719091
23	0x4049e81eb05f4afb	51.81343655255292
24	0x4041198c07105eb1	34.19958580302535
25	0xc010149c2647fa89	-4.020126913207272
26	0xc008695b94bb653b	-3.051444208115439
27	0xc00e8fce6d87d03a	-3.820217948634334
28	0xc0050a547d2a39cf	-2.630043962336664
29	0xbfcc14c2b766dea0	-0.2193835635678072
30	0xc00cbd3d82021314	-3.5924024731524558
31	0xc00a58ecbfae46e7	-3.293420312410365
32	0xc00cbd61dab1c02d	-3.592471798467179
33	0xc0101b7dba6af223	-4.026846802499253
34	0xc01758eeb53a1241	-5.83684809843959
35	0xc02191f47220a630	-8.78506809853124
36	0xc007d2b5af3a0580	-2.977885598142791
37	0xc0157b95bcf4c61e	-5.3706883930585985
38	0xc011882197401823	-4.382940638815884
39	0x40413fba5253f0cf	34.49787358378091
40	0x40471a3acfda9044	46.204919797630765
41	0xc001fba34a9e84bc	-2.247870047533608
42	0xbff70fadde013544	-1.4413279220637643
43	0xc007d6f11675db34	-2.9799520258633496
44	0x402ab8086a5a6908	13.359439204727565
45	0xc00e40830ebd4f01	-3.7814999724886325
46	0xc015e61664f58f5d	-5.474694802749437
47	0xc0127b6f82d22c30	-4.620542568281095
48	0xc004ffe3b1dc0eb7	-2.6249460120469297
49	0xc00c349b66acefc0	-3.525687029030422
50	0xc00dd6c197b32747	-3.729861436037854
51	0xc003fb0a51ea3def	-2.497578277550694
52	0xbff56e4d59dcbcc8	-1.3394292364353522
53	0xc01217eaea590443	-4.523357068713326
54	0x404032b06b3dd384	32.396008877934065
55	0xc00a26e2f83d50f9	-3.268987597819543
56	0x3ff5022ba062fbb8	1.3130298867324495
57	0xc00d05ea1b997254	-3.627887931461638
58	0xbff75c3fb4983894	-1.4600216917492945
59	0xc0068addceb7dbe9	-2.8178058767184564
60	0xc01bd1c543da2aec	-6.9548540689381575
61	0xc013783c9e23f4c6	-4.867418738312329
62	0xbffa814e12222f7f	-1.65656859477437
63	0xc020a0e93fd1c986	-8.314279550894536
64	0xc0174dee74a3166f	-5.826104948476867
65	0xc026108ad3d0d832	-11.032309169048037
66	0xc01ac462d143dca2	-6.6917832086248
67	0xc00f35976dddd2ee	-3.901167734462766
68	0xc0120507d1b34350	-4.504912640158025
69	0xc0149c5531144598	-5.152668730604454
70	0xc0067b75a687e519	-2.8102829942914807
71	0xc00736e7669bf76c	-2.901808549532623
72	0xc012e05e28aad7d9	-4.719109187533797
73	0xc00b4cd9b9b99d42	-3.4125246534128175
74	0xc0073190d93cc198	-2.8992020579973534
75	0x403068267615f723	16.40683687244667
76	0xc00071d13cb6854c	-2.055574869461145
77	0xc0109a9c22d43065	-4.150986236763946
78	0xc011b692aee32946	-4.4282939268253525
79	0xc00e88906efe164c	-3.8166817351618985
80	0x403d300e6f661137	29.187720262926828
81	0x4050f57cb15d44db	67.835735646327
82	0xbff9e1dbae473834	-1.6176411445371857
83	0xc025a9a4c588cffe	-10.831335232687703
84	0xc02a5b1a26ebbc66	-13.177933899189338
85	0x402f05925d61cb62	15.510882299602319
86	0xc0107db8b248ada0	-4.122774873433997
87	0xc00a2658e68a17b9	-3.2687242518322503
88	0xc00293b84a64b830	-2.3221288501727244
89	0xc0072cc9aa8915f7	-2.8968690226636187
90	0xc00e66f1703179cc	-3.800265194425469
91	0xc002fef7bfe1474e	-2.374495982229667
92	0xbfecf8f56c8b1ee8	-0.9053904647816724
93	0xbfebddd23ad6a828	-0.8708277844609755
94	0xc00d280d3d8a907c	-3.6445565040503975
95	0xc0104e6b98cf75f7	-4.076582324659731
96	0xc00ac7bd109c242c	-3.347528581395201
97	0x404eac39f62f3a85	61.34551884943088
98	0x405104f543b1352f	68.07746975236363
99	0xc020b20d881623e2	-8.347759487822206
100	0xc01cb21ef5d6c848	-7.173946229204439
101	0xbff36ad9027dada8	-1.2135858628561014
102	0xc001790ab5e8eb96	-2.184102460070288
103	0xbff4314e5d5feeb8	-1.262037625069679
104	0xc00b2b3c0d429ba6	-3.3961106334640645
105	0xc013276b9da31026	-4.78849645908125
106	0xc014c24347c59e50	-5.189709779202147
107	0xc0056bd89c0b9bd6	-2.6776592436831193
108	0xc0080b5d91d3f5d9	-3.005549563675896
109	0xc018d865b85383ca	-6.211325531098689
110	0xc0169eb7ea936953	-5.654998460051803
111	0xc016485461b96eb4	-5.5706343907765365
112	0xc001c93beef288d3	-2.2232588451162
113	0xc00aea90185bed0c	-3.364532652192457
114	0xbff26e1c6c720fac	-1.1518825756220208
115	0x4035769ca258924a	21.46332754766835
116	0xc01042b76cafde45	-4.065152834161897
117	0xc00c7ff53146c7b4	-3.56247938630346
118	0xc00da55ffa90f44e	-3.7057494712339922
119	0x401f0593ecba5051	7.755447100516975
120	0xc00bd9b1426125b4	-3.481295126523685
121	0xc0117e0b5b623505	-4.3730901983919965
122	0xc0125b1812242926	-4.588959010560108
123	0xc010398b214c97c6	-4.056194801616533
124	0xbfe4518a3ceed364	-0.634953612336727
125	0xc00dfe8603f7a6f3	-3.7492790517761647
126	0xc01560175574dd9e	-5.343839011438289
127	0xc004d8169c5c3f66	-2.605511876645255
128	0xc0037e1dc01414c3	-2.436580181706263
129	0xc00d1c954a832f71	-3.6389566251072485
130	0xc00ef5e0ab622a90	-3.8700574292500463
131	0xc00d5c8c27751fe5	-3.670189197790011
132	0xc012e6649fd38533	-4.724993226323295
133	0xc010515b4d7e6ee9	-4.079449854699967
134	0xc000aa09cc11e612	-2.083026499077058
135	0xc00523b2016eb9aa	-2.64242936247975
136	0xc0136540188085ad	-4.848877318233844
137	0xc0184dc5d28846e0	-6.075949945037536
138	0xc00f411af912faf6	-3.9067897280614217
139	0x4008152f017575b2	3.0103435625048514
140	0x3fbb35425884bd80	0.10628142033669086
141	0xc01313ac93d2d4e5	-4.769213018172398
142	0xc01a264c68ecacb2	-6.537400855489226
143	0xc006514ee9353a62	-2.789701291977779
144	0xc0110ecec7cca15b	-4.264460679878847
145	0xbffb4c06dca112ec	-1.706061231453698
146	0xbff6ad2874323089	-1.4172749079616855
147	0xc00d7eee4160797b	-3.6869778735701266
148	0xc00a2f6833c8885b	-3.273147968823691
149	0xc011d2dbb6b709da	-4.455916266366751
150	0xc010fb9005b5c458	-4.245666588992286
151	0xc01998c6d6c573b4	-6.399196010400306
152	0xc01527f74a133db4	-5.289029271530513
153	0xc00bcdae6fa57a7e	-3.4754303667426134
154	0xc017cbe7e617ebaf	-5.949126811227798
155	0x4023ea173de775ce	9.957208570961395
156	0xc0041b709efd5bf4	-2.5133984013623323
157	0x40592a1a36a306ec	100.65784994049653
158	0x40495a87b0283e00	50.707265872621065
159	0x403ab6b65a17a2ff	26.713719969530754
160	0x404b5e9c230fa7b6	54.73913992180262
161	0x4055719eb6e12b20	85.77531215657336
162	0x4056e86a064b693f	91.63147122730605
163	0xc0193f6707207906	-6.31191645751665
164	0xc01fd62eb3ef0381	-7.9591625322945
165	0xbffb503ef4f5b710	-1.7070912903540751
166	0xc013d6f999ace81e	-4.959936524561298
167	0xc01ce6876a67a41d	-7.22512594468665
168	0xbffcc986bd06aa98	-1.7992007621602735
169	0xc0065fb27cdc92a6	-2.7967271570981493
170	0xbfe5218818de35b8	-0.6603432164862886
171	0xc01146dea0fed3a6	-4.319208636811629
172	0xbfef83fb4ac577f0	-0.9848610363367225
173	0xc01640f7bae04fa2	-5.563445014897214
174	0xbfff0e48852bb63b	-1.940987129400482
175	0xc010a415b44ea12a	-4.160239045428435
176	0xc005969a37e81a3a	-2.6985363357264562
177	0xc00eb92fc840f354	-3.84042316864217
178	0xc014ea77f63e6e48	-5.228973243294213
179	0xc01640066692fa53	-5.562524416657271
180	0xc003f90530d32409	-2.4965919317660377
181	0xbff3a15c640e4262	-1.2268947513986395
182	0xbffba5fd9d770290	-1.7280250693294512
183	0xc0106b039ba64576	-4.104505950950047
184	0x401f25bd6f37b13b	7.7868554475538145
185	0x404e42e882aa83c1	60.52272065473472
186	0xc00970a07db38919	-3.1799936123289965
187	0xc019cafb3040e264	-6.448223833046175
188	0xc012d9fd61861295	-4.7128806341248906
189	0xc0104ff532c3d556	-4.078083794787139
190	0x40493baaf730de0f	50.46615495573143
191	0xc00d57916ef7a30c	-3.667757861072806
192	0xc00e3393e32fe0fd	-3.775184416674277
193	0xc0182043580eb674	-6.031506896875374
194	0xc01251f63bb21471	-4.580040867561466
195	0xc00a4744782628eb	-3.2847985636373003
196	0xbff9598b91517558	-1.584361617707449
197	0xc0110e6953bb0f35	-4.26407366589756
198	0xc00cb4e45f1a6c0e	-3.588326209062422
199	0xc00ba24292ab4c5e	-3.4542285402799697
200	0xbff5664591033f0e	-1.3374686874921653
201	0xbffd367e24127316	-1.8258038910927943
202	0xc00bd56a458244c3	-3.4792066030864546
203	0xbfee5908a0cb7c68	-0.9483683720135447
204	0x3fca2570675985a0	0.2042675499570068
205	0xbff53e535d717926	-1.3277162218215124
206	0xc01009e9238d9803	-4.009678416745376
207	0x3fdd0453d8e6f868	0.45338913137300674
208	0xc0120791e632604a	-4.507392498802867
209	0xc00a0677dca8f0cc	-3.253158306031855
210	0xc01047684fc1a82e	-4.0697338544796775
211	0xc00477b2b008953c	-2.5584462883586223
212	0xc0179eb76be8fe58	-5.9049965725858655
213	0xc00e8f71d0645ca3	-3.8200413017871866
214	0xc00cfbc862863fc0	-3.622940797540622
215	0xc01a21a89cc75be9	-6.532869767825994
216	0xc01a02013e8a44be	-6.501957871617547
217	0xc00a8585c6e8edfe	-3.3151965656122675
218	0xc0083f1843657cf8	-3.0308079972597817
219	0xc0112049a79999a2	-4.281530970335014
220	0xc00511a3d9f4a78d	-2.633613302973521
221	0xc00f5c1eafc55432	-3.9199804050536153
222	0xc0165686a8043f98	-5.5844980480759645
223	0xc01649f21e68f9fa	-5.572212672383552
224	0xbffedc1ce14aecbd	-1.9287384796614753
225	0xc011f3c17c94866f	-4.488042780461554
226	0xc014b6124e2b3822	-5.177804204357047
227	0xc0110d8901034a21	-4.26321794111803
228	0xc00e21ca8abd4487	-3.766499599362365
229	0xc011b735d9c197f4	-4.428916361275686
230	0xbffd3fe7027a8e93	-1.8281011673761085
231	0xbffeee9e5ca4febd	-1.933256494419694
232	0xc0008b3dc1523b96	-2.067988882371945
233	0xc00d72166efe3930	-3.680706851132662
234	0xc0119a3ab2e73139	-4.40061454330526
235	0xc00a569f60b56557	-3.292296176467669
236	0xc00b427da97c8791	-3.4074662438515095
237	0xc00f49c575d3ea61	-3.911021156816148
238	0xc00ce29b816dbb59	-3.6106481658565994
239	0xc00f65a9dd0970e8	-3.9246403950220277
240	0xc012dde74646d32b	-4.716702554772193
241	0xc012b4c1625ff0c6	-4.676518952470536
242	0xc00d94b97437bbc5	-3.697619350386477
243	0x40482ad2352cecba	48.334540030418296
244	0x40201aebe6c0f7c2	8.052581034713402
245	0xc002bd918c627216	-2.342562767748187
246	0xc00cdb13d65d6158	-3.606971430515994
247	0xc011655977b974ee	-4.348974104589827
248	0xbff4168c749c0398	-1.2555050425582746
249	0xc00d9702be33309b	-3.6987357005474
250	0xbfffe10167b9bd20	-1.992432980707072
251	0xc00b896e05e7d140	-3.442104383599286
252	0x403e46576620664d	30.274771101865827
253	0xc00b08a00e5b8977	-3.379211532753455
254	0xc00fc172ab3caa5e	-3.969456994809021
255	0xc007b6e0d66135a5	-2.964296030847168
